model.npz (npz, 3243 bytes, 8 tensors)

q/0/b f4 [20]
0	0x377accf9	1.4948885e-05
1	0x3a0dcc53	0.000540917
2	0xb62b36cd	-2.5512884e-06
3	0x39e07236	0.00042809703
4	0x380bc42b	3.3322878e-05
5	0x3a738a7a	0.0009290349
6	0x3a1e8909	0.00060476415
7	0x3a5526da	0.00081310945
8	0x39a3892f	0.00031191992
9	0xb5a468cb	-1.2249451e-06
10	0x38cfb6e4	9.904595e-05
11	0x3a10bf84	0.0005521702
12	0x38050d0c	3.1721822e-05
13	0x3a68e1af	0.0008883727
14	0x37fe6a3e	3.0328632e-05
15	0x3a071ba8	0.00051539624
16	0x358004f2	9.538182e-07
17	0x399f5d70	0.0003039646
18	0x39bf215e	0.0003645522
19	0x3a267096	0.0006349174

q/0/W f4 [20, 4]
0	0x3eb40cbe	0.35165972
1	0xbe991f64	-0.29906762
2	0x3f8cd88f	1.1003588
3	0x3eb03248	0.34413362
4	0xbba00ee3	-0.004884587
5	0xbdd6752d	-0.10471568
6	0xbd363bed	-0.044490743
7	0xbeeb2a20	-0.45930576
8	0xbd42f6d5	-0.04759868
9	0x3e0eaf7a	0.13934126
10	0x3e945d2d	0.28977337
11	0x3e94663f	0.28984258
12	0xbe0e04e3	-0.13869052
13	0xbf35a053	-0.7094776
14	0xbeac1ab8	-0.33614135
15	0x3f4e170f	0.80503935
16	0x3ee566cc	0.4480499
17	0x3e3d4245	0.18482311
18	0xbec2e832	-0.38067776
19	0x3aec3a6d	0.0018022783
20	0xbf212eee	-0.62962234
21	0xbe8e16cc	-0.27751768
22	0xbdfe0f9d	-0.12405322
23	0xbe3b0f26	-0.18267497
24	0x3ef45bc5	0.47726265
25	0xbf361474	-0.7112496
26	0xbede6d93	-0.43442973
27	0xbf303bb0	-0.68841076
28	0xbf1ee28e	-0.62064445
29	0x3d78709b	0.060654264
30	0xbf4d482b	-0.80188245
31	0x3ec020af	0.37524936
32	0xbdff57da	-0.12467928
33	0x3d0988ae	0.033577614
34	0x3e24537f	0.16047476
35	0xbe5fa10c	-0.21838778
36	0x3f04284d	0.51623994
37	0xbdc70059	-0.09716863
38	0x3e9814b7	0.29703304
39	0xbdcbe32e	-0.099554405
40	0x3e1408eb	0.14456527
41	0x3e0e9766	0.13924941
42	0x3dfefab7	0.12450164
43	0xbef9da35	-0.4879929
44	0x3e5d44ef	0.21608327
45	0xbe24c532	-0.16090849
46	0x3ea0bbca	0.31393272
47	0xbf89fb75	-1.0779864
48	0xbf3b8d1e	-0.732622
49	0x3e3a1d16	0.18175158
50	0x3f6e7573	0.93147963
51	0x3ed5bf31	0.4174743
52	0xbeafa8d8	-0.34308505
53	0xbf58f511	-0.8474894
54	0x3ebd7c1a	0.37008744
55	0xbd2dd187	-0.04243615
56	0x3e9739ec	0.29536378
57	0x3d6c2680	0.057653904
58	0x3c72568c	0.014791142
59	0x3fbd5aa1	1.4793283
60	0xbb9d9075	-0.0048084804
61	0xbda5cbf4	-0.080955416
62	0xbd7dc06a	-0.06195108
63	0xbe9639cc	-0.2934097
64	0x3efd7975	0.49506727
65	0xbe351edc	-0.17687553
66	0x3ea2ccd9	0.3179691
67	0x3e11b7ee	0.1423032
68	0x3f1bb836	0.6082796
69	0x3e557283	0.20844464
70	0xbf1bbe05	-0.6083682
71	0xbf2a0ae3	-0.6642286
72	0x3f33f607	0.7029728
73	0xbe9caafa	-0.30599195
74	0xbf297d82	-0.66207135
75	0xbeabe321	-0.33571723
76	0x3f218447	0.63092464
77	0xbf363f0a	-0.7118994
78	0xbedea6bc	-0.43486583
79	0xbeab5ce2	-0.334693

q/1/b f4 [6]
0	0xbc433b06	-0.011915928
1	0xbc17c06c	-0.009262186
2	0xbbc12148	-0.00589386
3	0xbc53980a	-0.012914667
4	0xbae32296	-0.0017329033
5	0x3c898c41	0.016790511

q/1/W f4 [6, 20]
0	0xbb7a2120	-0.0038166717
1	0xbc0fa959	-0.008768403
2	0xb9b1f973	-0.00033945925
3	0xbbec3181	-0.0072080498
4	0xbbd6e648	-0.0065582134
5	0xbc5f586b	-0.01363192
6	0xbc5ff6fd	-0.013669726
7	0xbbf6726f	-0.0075209658
8	0xbbdcdc83	-0.006740154
9	0xb91b7beb	-0.00014828115
10	0xbbc6ebdb	-0.0060705966
11	0xbc202bf5	-0.009776105
12	0xbbc8a155	-0.006122748
13	0xbc6519ff	-0.013983249
14	0xbbedeece	-0.0072611338
15	0xbbe83b6f	-0.007087163
16	0x395ac687	0.00020864057
17	0xbc0105d3	-0.007874924
18	0xbbf47707	-0.007460478
19	0xbc144cc6	-0.009051507
20	0x393361a6	0.00017107147
21	0xba1c4310	-0.0005960921
22	0xb920279d	-0.00015273546
23	0xbbc6d55f	-0.0060679163
24	0xbbc28586	-0.0059363274
25	0xba937ef4	-0.0011253045
26	0xbba0f0a3	-0.0049114986
27	0xbb8926ce	-0.004185534
28	0xbb30b10a	-0.0026960992
29	0xbab4cc28	-0.0013793753
30	0xbb7e206e	-0.0038776654
31	0xbab452e4	-0.0013757613
32	0xbbdcc394	-0.006737182
33	0xbb52010e	-0.0032044086
34	0xbbda1640	-0.0066554844
35	0xb9174360	-0.00014425581
36	0xbb809c62	-0.0039248923
37	0xbb818966	-0.0039531467
38	0xbbb440a3	-0.0055008694
39	0xbba67780	-0.0050801635
40	0xbbd63335	-0.006536866
41	0xbb9044e0	-0.004402742
42	0xb90e35df	-0.00013562244
43	0xbbd01f13	-0.0063513606
44	0x39f92e60	0.00047527533
45	0xbb82a4c1	-0.0039869254
46	0xbbeff5c1	-0.0073229973
47	0xbb0b795a	-0.0021282048
48	0xbb17ee67	-0.002318287
49	0xbbbed17e	-0.0058233133
50	0xbb2c5b83	-0.0026299662
51	0xbbaa26f5	-0.0051926323
52	0xb9dc1254	-0.00041975325
53	0xbc027863	-0.007963273
54	0xb992aa4c	-0.0002797417
55	0xbb772fcb	-0.0037717696
56	0xbba8ddcb	-0.005153393
57	0xbaba8c30	-0.0014232453
58	0xbbb9aa0b	-0.0056660227
59	0xbc01d084	-0.007923249
60	0xb8ef51a2	-0.000114116134
61	0xbc20dac5	-0.009817784
62	0xb9c9588c	-0.0003840368
63	0xbc3a2216	-0.011360666
64	0xba30036d	-0.00067143777
65	0xbc3bd972	-0.011465417
66	0xbc1ce233	-0.0095754145
67	0xbc57d9e9	-0.013174512
68	0xbbb1b004	-0.005422594
69	0x399adb44	0.00029536535
70	0xbb9bec46	-0.0047583906
71	0xbc24a909	-0.010050067
72	0xbb38cfb2	-0.0028199968
73	0xbbf6c9a6	-0.0075313626
74	0xbbd32fc4	-0.006444903
75	0xbc10dcfa	-0.008841747
76	0xb96085e3	-0.00021412181
77	0xbc2ab044	-0.010418002
78	0xbc15620f	-0.009117617
79	0xbc02f9ab	-0.007994096
80	0xb8bc3cfe	-8.975899e-05
81	0x3920be6f	0.00015329731
82	0xb8c206ae	-9.251885e-05
83	0xbb38aa7e	-0.0028177793
84	0xb9675fe9	-0.00022065606
85	0xbac8c25d	-0.0015316714
86	0x393fda60	0.0001829653
87	0xbb41b7fd	-0.0029559128
88	0x38c625ba	9.448403e-05
89	0x38421277	4.62704e-05
90	0xba03e259	-0.0005030982
91	0xb906d30f	-0.00012857861
92	0x39849c20	0.00025293324
93	0xbab13ee8	-0.0013522776
94	0xbadf7249	-0.001704761
95	0x39240170	0.00015640794
96	0xb8e0adbf	-0.00010713515
97	0x38ad0ffe	8.2522616e-05
98	0x38b64e24	8.692991e-05
99	0xba35b446	-0.0006931465
100	0x393930a2	0.00017661092
101	0x3c92fc5f	0.017942606
102	0xb999153e	-0.0002919826
103	0x3c85e3b0	0.016343921
104	0xbb382c37	-0.0028102526
105	0x3c961d27	0.018324448
106	0x3c8ad16e	0.016945567
107	0x3c8e6d77	0.017386181
108	0x3c996ede	0.018729623
109	0xba4a52fe	-0.0007718055
110	0x3c8a3bae	0.01687416
111	0x3ca05d61	0.019575777
112	0x3c0b3491	0.0084964195
113	0x3c8eb714	0.017421283
114	0xb9cff26b	-0.00039662732
115	0x3c900f44	0.017585404
116	0xb888b2cb	-6.518288e-05
117	0x3c83a09e	0.0160678
118	0x3c876fb5	0.016532758
119	0x3c8b7c7b	0.01702713

pi/0/b f4 [20]
0	0xbaba3c66	-0.0014208674
1	0xbabe2005	-0.0014505392
2	0xba689029	-0.0008871579
3	0xb9c4312c	-0.0003742067
4	0x378a9690	1.6520993e-05
5	0xb886e400	-6.432086e-05
6	0xbad15eba	-0.0015973665
7	0xbadce7b2	-0.0016853719
8	0xbac5e4a4	-0.0015098047
9	0x3820b67c	3.8316924e-05
10	0xbabfba9f	-0.0014627761
11	0xb93d1b2c	-0.00018034567
12	0xb8719788	-5.7600002e-05
13	0xb97d0887	-0.00024131137
14	0x3665de76	3.4253148e-06
15	0xbab5bc9a	-0.0013865412
16	0x37275e8a	9.975987e-06
17	0xbab46ee7	-0.0013765962
18	0xba9f17ae	-0.0012137794
19	0xbacef8d5	-0.001579071

pi/0/W f4 [20, 4]
0	0xbf0a8451	-0.5410815
1	0x3eff9ade	0.49922842
2	0x3e11e36f	0.14246915
3	0xbf405fd4	-0.7514622
4	0xbe9334a4	-0.287511
5	0x3f538ae6	0.8263382
6	0xbf9b33c3	-1.2125171
7	0xbe59da91	-0.21274783
8	0x3f223ef3	0.633773
9	0xbedd9b4c	-0.43282545
10	0xbeadce92	-0.33946663
11	0xbd3c5451	-0.045978848
12	0x3f3eef5c	0.74583983
13	0xbea35b95	-0.3190581
14	0xbe63e2ff	-0.22254561
15	0xbe5d769d	-0.21627279
16	0x3f8d2e5e	1.1029775
17	0x3f8bf492	1.0934012
18	0x3f0083c1	0.5020104
19	0x3e45b7e1	0.19308425
20	0x3ebcd600	0.3688202
21	0x3f3ecfa6	0.74535596
22	0xbeef8a61	-0.46785262
23	0x3f167aeb	0.5878131
24	0xbf1fec43	-0.6246988
25	0xbea2f3bd	-0.31826583
26	0x3ee8b4c2	0.45450407
27	0xbf3664a7	-0.71247333
28	0xbd8b537c	-0.06803033
29	0xbedc5d67	-0.4304001
30	0xbe01f2fe	-0.1269035
31	0xbfb2dd4e	-1.3973787
32	0xbf6223f3	-0.88336104
33	0xbeb2dad9	-0.34932593
34	0x3eee0c0c	0.46493566
35	0xbdae559f	-0.08512425
36	0x3ab8819a	0.001407671
37	0x3eb04024	0.34423935
38	0xbee1147f	-0.4396095
39	0x3e10c4b2	0.14137533
40	0xbecd45dd	-0.40092364
41	0xbf5ce0c3	-0.8628046
42	0xbe46f10a	-0.19427887
43	0x3e93997c	0.28828037
44	0x3e2dc85d	0.16970964
45	0xbbc88e76	-0.0061204983
46	0x3f991872	1.1960585
47	0x3e53cdfd	0.20684047
48	0x3efaaebb	0.48961434
49	0x3f8f3cca	1.1190426
50	0xbf25a8c9	-0.6471067
51	0xbf04f5c0	-0.51937485
52	0x3f5f2d0e	0.87178123
53	0xbecc2d31	-0.39878228
54	0x3c70fd09	0.014708766
55	0x3f08ef7d	0.5349043
56	0x3ee4059b	0.44535527
57	0x3f60a02e	0.87744415
58	0x3f3f710a	0.7478186
59	0x3f08e1f5	0.53469783
60	0xbec4e991	-0.38459447
61	0x3ecbc54c	0.39798963
62	0x3e21ecdf	0.15813015
63	0xbf2955ac	-0.6614635
64	0x3f356a95	0.70865756
65	0x3ecea837	0.40362713
66	0x3cba3ee3	0.022735065
67	0xbdeeb393	-0.11655345
68	0xbf18e3b9	-0.5972248
69	0x3dcd9d51	0.10039771
70	0x3e70aeb8	0.2350415
71	0xbed3dc41	-0.41378978
72	0x3f151451	0.58234125
73	0xbf0c51a8	-0.548121
74	0xbf87d3d4	-1.061152
75	0x3f05682f	0.52112097
76	0xbe4c794a	-0.19968143
77	0xbd802454	-0.06256929
78	0xbed5e9bd	-0.4177989
79	0xbf4d17a3	-0.8011419

pi/1/b f4 [6]
0	0xbc4338c3	-0.0119153885
1	0xbbd66908	-0.0065432824
2	0xbacc1541	-0.0015570299
3	0xbb61c3c4	-0.003444896
4	0x3bbaf82a	0.005705853
5	0x3bcc0240	0.006225854

pi/1/W f4 [6, 20]
0	0xbb5c1cea	-0.003358657
1	0xbc2ab378	-0.010418765
2	0xbb8048ee	-0.003914944
3	0xbb15f339	-0.0022880568
4	0xbbcf8dd3	-0.0063340454
5	0xbbd0475b	-0.0063561625
6	0xbbae4cf8	-0.005319234
7	0xbb23faf7	-0.0025021413
8	0xbc49969c	-0.0123039745
9	0xbbe0ebe4	-0.006864058
10	0xbc3f849c	-0.011689331
11	0xbb8f9e3d	-0.004382877
12	0xbbf27a34	-0.0073998217
13	0xbbb006eb	-0.0053719184
14	0xba842142	-0.0010080712
15	0xbb53066a	-0.0032199868
16	0xbbcd4e17	-0.0062654126
17	0xbba94d13	-0.0051666587
18	0xbc210b5d	-0.009829369
19	0xbb741301	-0.0037242773
20	0xbbc1e944	-0.0059177
21	0x37954200	1.7792918e-05
22	0xbbd87d43	-0.0066067292
23	0xbb9398ac	-0.004504284
24	0x3b976f67	0.0046214345
25	0x3bbf6022	0.0058403173
26	0xbb02d232	-0.0019961712
27	0xbae9660e	-0.0017806904
28	0x39e917f0	0.00044459058
29	0x3a449602	0.00074991595
30	0xbba414b2	-0.00500735
31	0x3b838c6a	0.0040145414
32	0xbb134b0c	-0.0022475151
33	0xbbe3c0bc	-0.006950466
34	0x39b5107e	0.00034535298
35	0xbbc15e08	-0.005901102
36	0x3b82b666	0.0039890287
37	0xbb46e041	-0.0030346068
38	0xbc0c3a1c	-0.008558776
39	0xbab56d56	-0.0013841789
40	0xbb4ebd26	-0.0031545847
41	0xb96525f8	-0.00021853286
42	0xbb2364fc	-0.0024932018
43	0x3a150ee6	0.0005686119
44	0x3bac2d61	0.005254433
45	0x3c04aeed	0.008098346
46	0xbbfdbd74	-0.007743532
47	0xbc152d97	-0.009105108
48	0xbb9c82ce	-0.0047763353
49	0x3c5d7b1c	0.013518121
50	0xbc0bac5c	-0.00852498
51	0xbbd4b8ac	-0.006491741
52	0x3c7b0bba	0.01532262
53	0x3b944862	0.0045252303
54	0x39e68cfa	0.00043974054
55	0xbb3db2f4	-0.0028945776
56	0x3b8d3d70	0.0043103024
57	0xbb5fd9bc	-0.003415688
58	0xba7c697c	-0.00096287555
59	0xbbd8a92d	-0.006611964
60	0xbc199780	-0.009374499
61	0xbc428afa	-0.011873955
62	0x3c1d39b8	0.009596281
63	0x3c0c9642	0.008580746
64	0x3ba21584	0.0049464125
65	0x3a84be00	0.0010127425
66	0xbbc5cc1c	-0.0060362946
67	0xbbea7658	-0.007155221
68	0xbbac95c2	-0.005266876
69	0xbb2a361c	-0.0025972193
70	0xbb91c23e	-0.0044482043
71	0x3b9307b2	0.0044870013
72	0xbb15705c	-0.0022802567
73	0x3bd12fda	0.006383878
74	0x380f887c	3.4220968e-05
75	0xbc04254e	-0.008065535
76	0x3b91be46	0.004447731
77	0xbbf0b74e	-0.0073460704
78	0x3b787924	0.0037914002
79	0xbc0e44bf	-0.0086833825
80	0xbba192a0	-0.004930809
81	0xbb3fde06	-0.0029276623
82	0x3ba50fd8	0.005037289
83	0x3c160e6b	0.009158711
84	0x3ba24ee8	0.004953254
85	0x3c02061c	0.007936027
86	0xbb4aed68	-0.003096426
87	0xbb994fc8	-0.0046787
88	0xbb00e992	-0.0019670469
89	0x3bb44789	0.0055016917
90	0xbae321aa	-0.0017328758
91	0x3b8f3c85	0.004371228
92	0x3ba10204	0.0049135704
93	0x3be61348	0.0070213415
94	0x39b7fa65	0.00035091038
95	0xbb777798	-0.0037760492
96	0x3b909c0b	0.004413133
97	0xbb8618fa	-0.004092333
98	0x3a948b1a	0.0011332959
99	0xbb9b32dc	-0.0047362875
100	0x3c06f521	0.008237154
101	0x3b8e4394	0.004341552
102	0x3b88c109	0.004173402
103	0xba1e53f5	-0.0006039732
104	0xbb7b3c5b	-0.0038335535
105	0xba0352e8	-0.00050096074
106	0x3c004d20	0.007830888
107	0x3bc5ea58	0.006039899
108	0x3c048747	0.008088893
109	0xbb5c0129	-0.0033570027
110	0x3bbdff46	0.005798253
111	0x3b61d6a0	0.0034460202
112	0xbbf1fe38	-0.0073850416
113	0x3a86341e	0.0010238921
114	0x389bbea5	7.426486e-05
115	0x3bfeea89	0.0077794236
116	0xbb82e9f4	-0.0039951745
117	0x3c05cb14	0.008166093
118	0x3b9d97bd	0.0048093484
119	0x3bb4497e	0.005501925
